model-2.2012203771737404e-05.pth (torch, 4826 bytes, 5 tensors)

first.weight f4 [20, 2]
000000 f7 a9 9f be f2 25 09 3f f7 42 0e bf 9a b7 17 3d
       -0.3118436 0.53573525 -0.5557093 0.03704033
000010 71 3e 00 3e d3 97 c6 3d fa 86 c2 3e ca 10 8f be
       0.1252382 0.09696927 0.37993604 -0.27942497
000020 b5 d9 11 bf b9 02 3c bf ee 43 e6 be 4e 50 ff be
       -0.5697282 -0.73441654 -0.449737 -0.49865955
000030 6c 6c 31 3f 6a af ec 3e 78 30 11 3f 19 f0 a9 3d
       0.69306064 0.4622758 0.5671458 0.08297748
000040 22 e3 58 3f 2a b3 c0 3d 23 2d df 3e 60 56 cb be
       0.8472158 0.09409173 0.43589124 -0.39714336
000050 84 45 89 bd 6e ad 1c bf 1e b9 eb 3d ab 6a 33 3f
       -0.06702712 -0.6120213 0.11509918 0.7008464
000060 8d 4f ed bd 4c 7b 39 bf ce 6d c9 be 53 f9 31 3e
       -0.11587439 -0.7245376 -0.39341587 0.17380266
000070 dd 73 ab be 35 16 3a bf 24 f8 43 3e e1 31 d0 be
       -0.33486834 -0.72690135 0.19137627 -0.40663055
000080 20 e5 30 3f 1a e4 3a bf 28 a3 35 bc 6c 91 fc be
       0.69099617 -0.73004305 -0.011086263 -0.49329698
000090 d6 a8 27 bf 62 ff 97 bc 42 40 1f 3f 6d 1a ef be
       -0.65492 -0.018554393 0.62207425 -0.4669985

first.bias f4 [20]
000000 84 9d 5f 3f 41 32 30 3f 58 37 78 bf cf 0f 0e 3f
       0.87349725 0.6882668 -0.9695945 0.5549287
000010 3e 65 a0 be e8 a9 02 bf 56 4c ef be 31 cb a4 bd
       -0.31327242 -0.51040506 -0.46737927 -0.08046568
000020 bb a8 d4 3e 51 3d 21 bf 7a c7 33 3f ad bd 13 3d
       0.4153498 -0.62984186 0.7022625 0.03606956
000030 9f bf 6f 3f b4 0d 04 bf 45 15 04 3f 03 7c d7 3d
       0.93651766 -0.5158341 0.51594955 0.105217
000040 b1 eb bb be ab dd c5 3e ee a4 07 3f 14 61 a5 bd
       -0.36703256 0.38645682 0.5298604 -0.08075157

linears.0.weight f4 [20, 20]
000000 7d 38 10 3e 6a 57 01 3e a5 a9 23 be 53 99 9b be
       0.14084049 0.12631002 -0.15982683 -0.30390415
000010 21 bf 9b 3d 1e 1c 46 be a7 9a 7c 3e f1 a8 5c be
       0.07604814 -0.19346663 0.2466837 -0.21548821
000020 f2 72 91 be ed 78 3b be 7a a2 b0 be 4a a1 79 3e
       -0.2840801 -0.18307848 -0.3449896 0.24377933
000030 19 dc 31 be cd c9 f1 3e cb 98 c5 be c8 3b 20 bf
       -0.17369117 0.47224274 -0.38593134 -0.6259122
000040 71 3c 95 be 96 47 99 be 1d d1 ff 3c 8e 10 cb be
       -0.29147676 -0.29937428 0.031227643 -0.39661068
000050 3b 8e 8c 3d 51 00 0e bd 80 b9 53 3e 2c 4c 83 be
       0.06863066 -0.03466827 0.20676231 -0.25644052
000060 42 c0 06 3f 03 70 fb 3e 8b 54 81 be a1 53 0a bf
       0.5263711 0.49108896 -0.25259814 -0.5403386
000070 81 bf a1 be 6f 61 5f 3d 6c bc 04 be fd 92 10 be
       -0.31591418 0.05453628 -0.12962502 -0.14118572
000080 19 9c 93 bd a4 09 18 3e 2b 92 fe 3c ab 4c a2 be
       -0.07207508 0.14847428 0.031075558 -0.31699118
000090 0e af 7e be 60 71 a3 bd 0c 93 13 3d db c8 fa be
       -0.24871466 -0.07980609 0.036028907 -0.48981366
0000a0 1f d3 88 3e 06 57 b5 3e 96 e7 93 be d6 6e ab 3e
       0.26723573 0.35417956 -0.28887624 0.33483
0000b0 78 af d6 3e 75 05 13 3e 60 65 85 be db cb 9d be
       0.41930747 0.1435755 -0.26053905 -0.30819592
0000c0 82 8a 71 be 10 b3 5c be 91 16 b9 3e f2 bd 01 bf
       -0.23587993 -0.21552682 0.3615003 -0.5068046
0000d0 b1 5b c6 3e a5 e5 70 be d6 bc 27 3e 32 7b 52 3e
       0.3874183 -0.23525102 0.16380629 0.20554808
0000e0 74 45 a3 be 96 d0 66 3e 92 9d 7e 3d 5c 7d f4 3b
       -0.31888926 0.22540507 0.06216199 0.007461233
0000f0 7f a1 e4 bd 36 7a 02 3e 4e e7 97 3e dc 1c 37 be
       -0.111636154 0.12741932 0.2966866 -0.17882103
000100 1e b6 80 be 5c 78 1d be 1c 5f 0a 3e 6b 75 17 3e
       -0.25138944 -0.15377945 0.13512844 0.14790885
000110 d2 10 84 be 08 94 b4 bd e8 92 05 bf ec d8 a1 3e
       -0.25794083 -0.08817297 -0.52177286 0.3161081
000120 f3 83 09 bf 9e 46 a9 3e d6 59 f0 be 1c 52 be bd
       -0.53716964 0.3306169 -0.4694354 -0.09293005
000130 de b1 ab 3b f8 08 78 be 4c 69 e4 3c 23 2a 09 be
       0.0052397093 -0.24222171 0.02788224 -0.1339498
000140 ad d1 49 bc 95 c8 cb 3e 66 d6 1a bf cf 4d b1 3e
       -0.012318057 0.3980147 -0.60483396 0.34629676
000150 0a 12 81 bc 8a 42 64 be 22 82 8e be 67 d3 32 3e
       -0.015755672 -0.22291008 -0.27833658 0.17463456
000160 a8 f6 a5 3d 53 16 8c bd 4a f5 df 3e 7c b6 ae be
       0.081036866 -0.068401955 0.43741828 -0.341236
000170 74 88 42 3f 73 be 04 bf 55 93 e3 3e b5 52 3f 3e
       0.7598946 -0.518531 0.44448343 0.18683894
000180 b6 4f c9 3e 59 10 de 3e 85 81 81 3d 27 40 07 3e
       0.39318627 0.43371847 0.06323532 0.13208066
000190 c6 4d c5 3e 88 1a 23 3f 53 e7 97 be 80 a1 05 b9
       0.385359 0.6371236 -0.29668674 -0.00012744032
0001a0 99 e4 47 bd da dc 8c bc 02 3d ea be d0 71 f3 be
       -0.048801992 -0.017195154 -0.4574967 -0.4754777
0001b0 a9 de 8f 3b cb c3 d4 be f3 75 ce 3e 25 42 5d be
       0.004390557 -0.41555628 0.40324363 -0.21607263
0001c0 c0 0a d5 3e 38 ab 30 3c ef 4d a6 3e 43 63 05 be
       0.41609764 0.010783009 0.32481334 -0.13026147
0001d0 58 07 0b bf b1 04 d9 3d 50 61 c7 3e 01 5c a8 bd
       -0.5430808 0.10596598 0.3894143 -0.08220673
0001e0 af ef 5d bd e7 fb 61 bd 57 af 8f bd 29 2a 06 3e
       -0.05418366 -0.055171873 -0.07015865 0.1310202
0001f0 b5 87 f8 be 9e f8 e8 bb c4 22 54 3e 14 cf c1 3e
       -0.48541036 -0.0071097156 0.20716387 0.378533
000200 16 fd cb 3e fb 01 94 3e 75 b2 77 3d 9e a4 8b bd
       0.39841527 0.2890776 0.060472924 -0.068185076
000210 16 b7 49 3e 39 dc ad bd 17 9e f9 bd f9 b8 54 3e
       0.19698748 -0.0848927 -0.12188356 0.20773686
000220 57 dc 9b 3d 98 d4 58 3d a2 1f 8d be e4 ee 53 3e
       0.07610386 0.05293712 -0.27563196 0.20696598
000230 18 f2 86 3e cc fd 9d 3d 81 f7 6e be 91 1f 75 3e
       0.26356578 0.077144235 -0.23336603 0.23937823
000240 04 31 a7 bc e9 a9 89 be 0b cd e8 bd be 6f 08 3c
       -0.020409115 -0.26887444 -0.11367234 0.008327423
000250 64 8b 36 3e f9 ef ea bd 9f e1 a4 bd 2b 22 58 3d
       0.17826611 -0.114715524 -0.08050846 0.05276696
000260 e6 fa 7f 3e b0 eb 9e be 3c 11 75 3e 75 cd 42 bd
       0.24998054 -0.3103919 0.23932356 -0.04755922
000270 b2 e9 3c be 27 ee ee 3d 4e 95 12 bb d1 ed 19 3d
       -0.18448523 0.11666518 -0.0022366825 0.037580315
000280 00 90 2a 3e d5 e4 af be a0 e8 3d 3e f9 d2 66 ba
       0.16656494 -0.34354272 0.1854577 -0.0008805241
000290 aa 66 70 bd 15 5a dd be 3b 4e fc 3e 30 e2 99 3e
       -0.058691658 -0.4323279 0.49278435 0.3005538
0002a0 10 a9 00 3f 0a 60 b2 bb c3 b2 17 be 55 de 1f 3e
       0.5025797 -0.0054435777 -0.14814286 0.15612157
0002b0 7e d9 8a bd a2 52 d7 3d f4 a7 a5 be 0d a3 86 be
       -0.067797646 0.10513808 -0.323547 -0.26296273
0002c0 f0 79 2f 3e 02 73 b9 be 10 d2 6a be e3 f6 51 be
       0.17136359 -0.36220556 -0.22931695 -0.20504336
0002d0 70 a0 e0 bd 6f 6d e5 be c8 80 0b 3f 90 49 7f be
       -0.10968101 -0.44810054 0.5449338 -0.24930406
0002e0 cc b9 8d be 97 a8 76 be 9b 36 17 3f de b6 88 3e
       -0.27680814 -0.2408775 0.59067696 0.26702017
0002f0 39 b2 36 3e fe e9 cd 3d 4c 05 13 bf 17 e9 03 3e
       0.17841424 0.10054396 -0.5742996 0.12881885
000300 44 af 36 bf 55 a8 0d 3e 44 d1 18 bf 32 36 1f bd
       -0.71361184 0.13833745 -0.59694314 -0.038870044
000310 37 33 2d 3e 56 f6 6b be 80 1f 3a be 44 f1 30 3e
       0.16914068 -0.23043188 -0.18176079 0.17279536
000320 4f 0a 57 be 75 25 01 bc f7 65 25 be 4a fa c3 3e
       -0.21000026 -0.007882466 -0.16152178 0.38276893
000330 14 2c 84 be 9e cd 3b be 7c 2e 1c 3e 8a 36 1c 3e
       -0.2581488 -0.18340155 0.15252107 0.1525518
000340 e6 21 64 3e 04 2e a6 3d 6d a2 1a 3e b2 e9 8f be
       0.22278556 0.081142455 0.15101023 -0.28107983
000350 d9 4b 98 3e d8 77 c7 be f9 95 32 3e 07 d1 bc 3e
       0.29745367 -0.3895862 0.17440023 0.36878225
000360 fc 08 2b 3f 7a 92 d7 3e 57 81 d8 be 44 02 59 3e
       0.66810584 0.4210394 -0.42286178 0.2119227
000370 b3 3b 62 be 95 a1 98 bc 29 3b 14 be 93 d7 38 3e
       -0.22093086 -0.018631736 -0.14475693 0.18050985
000380 03 5c 4a bd f0 42 e3 bd c9 d8 10 3d f4 5b 4d 3e
       -0.049404155 -0.11096752 0.035362992 0.20054609
000390 85 ff 91 3e b7 97 bb 3e bc 84 5f 3e 69 3e 28 bd
       0.28515258 0.36639187 0.21827978 -0.041075144
0003a0 78 0d 72 3e d8 e4 9b be e8 d9 76 bd 6e 80 55 3e
       0.2363795 -0.3044803 -0.060266405 0.20849773
0003b0 47 e5 47 3f fa 91 c6 3e b2 c6 e6 bd 1c 77 bd 3e
       0.78084224 0.38783246 -0.11268367 0.37004936
0003c0 12 14 cc 3e 47 d2 cd 3e 0e c2 c4 be 37 b7 13 be
       0.39859062 0.4019949 -0.38429302 -0.1442536
0003d0 cb 21 4b bd 11 7c a8 be e3 c9 d5 bd 64 fe ce be
       -0.049592774 -0.32907155 -0.104388975 -0.4042846
0003e0 64 e5 81 be 1d fa fa be 63 8b 0a be 33 b4 fc 3d
       -0.25370324 -0.49018946 -0.13529734 0.12339058
0003f0 e2 aa 34 be 58 cb dd 3e 13 55 2b bd b1 6e 35 be
       -0.17643312 0.433192 -0.04182918 -0.17718007

linears.0.bias f4 [20]
000000 5c 04 05 bf 47 36 22 bd 0e b6 87 3d e7 7c a3 be
       -0.51959777 -0.039602544 0.06626521 -0.3193123
000010 e2 d9 84 3e 0f 1b 12 3f 53 c2 3b be cd 7a 20 3e
       0.2594748 0.5707254 -0.18335848 0.15671845
000020 82 7a 03 be ec 18 0e bf bb 1f af 3e 71 0b 55 3e
       -0.12839702 -0.5550678 0.34203896 0.20805146
000030 e4 7b 8e 3e 63 85 32 be f6 40 22 bd e7 c4 07 bf
       0.27828896 -0.17433695 -0.039612733 -0.53034824
000040 15 ec 62 3e 1f de 65 be 91 fc e4 3e bf 1e 78 3e
       0.2216037 -0.22448014 0.44723943 0.24230479

last.weight f4 [1, 20]
000000 78 24 a4 bc 71 4b 98 3f 30 c4 e4 3f 30 bc 94 3e
       -0.02003692 1.1898023 1.7872372 0.29049826
000010 33 55 8c bf b8 99 7e bf b5 be 74 bf fc 55 79 3f
       -1.0963501 -0.99453306 -0.95603496 0.97396827
000020 0f 09 c6 3f c0 69 8c be ff af 82 3f b2 3f 77 3f
       1.5471514 -0.2742443 1.020996 0.96581566
000030 42 3f 53 3f b4 89 2b 3c 05 ad 2c bf 30 6b ee b9
       0.825184 0.010469843 -0.67451507 -0.00045474758
000040 cc 1c 9d bf 93 5e b5 bf a1 6d 60 3e a5 17 06 c0
       -1.2274413 -1.4169487 0.2191682 -2.0951931
